…
2025-03-27 09:17:52,987 INFO: Training statistics:
	Number of train images: 101
	Dataset enlarge ratio: 1
	Batch size per gpu: 8
	World size (gpu number): 1
	Require iter number per epoch: 13
	Total epochs: 2462; iters: 32000.
2025-03-27 09:17:53,026 INFO: Dataset [PairedImageDataset] - caratulas_val is built.
2025-03-27 09:17:53,027 INFO: Number of val images/folders in caratulas_val: 10
2025-03-27 09:17:53,034 INFO: Network [SRVGGNetCompact] is created.
2025-03-27 09:17:53,170 INFO: Network: SRVGGNetCompact, with parameters: 1,213,296
2025-03-27 09:17:53,170 INFO: SRVGGNetCompact(
  (body): ModuleList(
    (0): Conv2d(3, 64, kernel_size=(3, 3), stride=(1, 1), padding=(1, 1))
    (1): PReLU(num_parameters=64)
    (2): Conv2d(64, 64, kernel_size=(3, 3), stride=(1, 1), padding=(1, 1))
    (3): PReLU(num_parameters=64)
    (4): Conv2d(64, 64, kernel_size=(3, 3), stride=(1, 1), padding=(1, 1))
    (5): PReLU(num_parameters=64)
    (6): Conv2d(64, 64, kernel_size=(3, 3), stride=(1, 1), padding=(1, 1))
    (7): PReLU(num_parameters=64)
    (8): Conv2d(64, 64, kernel_size=(3, 3), stride=(1, 1), padding=(1, 1))
    (9): PReLU(num_parameters=64)
    (10): Conv2d(64, 64, kernel_size=(3, 3), stride=(1, 1), padding=(1, 1))
    (11): PReLU(num_parameters=64)
    (12): Conv2d(64, 64, kernel_size=(3, 3), stride=(1, 1), padding=(1, 1))
    (13): PReLU(num_parameters=64)
    (14): Conv2d(64, 64, kernel_size=(3, 3), stride=(1, 1), padding=(1, 1))
    (15): PReLU(num_parameters=64)
    (16): Conv2d(64, 64, kernel_size=(3, 3), stride=(1, 1), padding=(1, 1))
    (17): PReLU(num_parameters=64)
    (18): Conv2d(64, 64, kernel_size=(3, 3), stride=(1, 1), padding=(1, 1))
    (19): PReLU(num_parameters=64)
    (20): Conv2d(64, 64, kernel_size=(3, 3), stride=(1, 1), padding=(1, 1))
    (21): PReLU(num_parameters=64)
    (22): Conv2d(64, 64, kernel_size=(3, 3), stride=(1, 1), padding=(1, 1))
    (23): PReLU(num_parameters=64)
    (24): Conv2d(64, 64, kernel_size=(3, 3), stride=(1, 1), padding=(1, 1))
    (25): PReLU(num_parameters=64)
    (26): Conv2d(64, 64, kernel_size=(3, 3), stride=(1, 1), padding=(1, 1))
    (27): PReLU(num_parameters=64)
    (28): Conv2d(64, 64, kernel_size=(3, 3), stride=(1, 1), padding=(1, 1))
    (29): PReLU(num_parameters=64)
    (30): Conv2d(64, 64, kernel_size=(3, 3), stride=(1, 1), padding=(1, 1))
    (31): PReLU(num_parameters=64)
    (32): Conv2d(64, 64, kernel_size=(3, 3), stride=(1, 1), padding=(1, 1))
    (33): PReLU(num_parameters=64)
    (34): Conv2d(64, 64, kernel_size=(3, 3), stride=(1, 1), padding=(1, 1))
    (35): PReLU(num_parameters=64)
    (36): Conv2d(64, 64, kernel_size=(3, 3), stride=(1, 1), padding=(1, 1))
    (37): PReLU(num_parameters=64)
    (38): Conv2d(64, 64, kernel_size=(3, 3), stride=(1, 1), padding=(1, 1))
    (39): PReLU(num_parameters=64)
    (40): Conv2d(64, 64, kernel_size=(3, 3), stride=(1, 1), padding=(1, 1))
    (41): PReLU(num_parameters=64)
    (42): Conv2d(64, 64, kernel_size=(3, 3), stride=(1, 1), padding=(1, 1))
    (43): PReLU(num_parameters=64)
    (44): Conv2d(64, 64, kernel_size=(3, 3), stride=(1, 1), padding=(1, 1))
    (45): PReLU(num_parameters=64)
    (46): Conv2d(64, 64, kernel_size=(3, 3), stride=(1, 1), padding=(1, 1))
    (47): PReLU(num_parameters=64)
    (48): Conv2d(64, 64, kernel_size=(3, 3), stride=(1, 1), padding=(1, 1))
    (49): PReLU(num_parameters=64)
    (50): Conv2d(64, 64, kernel_size=(3, 3), stride=(1, 1), padding=(1, 1))
    (51): PReLU(num_parameters=64)
    (52): Conv2d(64, 64, kernel_size=(3, 3), stride=(1, 1), padding=(1, 1))
    (53): PReLU(num_parameters=64)
    (54): Conv2d(64, 64, kernel_size=(3, 3), stride=(1, 1), padding=(1, 1))
    (55): PReLU(num_parameters=64)
    (56): Conv2d(64, 64, kernel_size=(3, 3), stride=(1, 1), padding=(1, 1))
    (57): PReLU(num_parameters=64)
    (58): Conv2d(64, 64, kernel_size=(3, 3), stride=(1, 1), padding=(1, 1))
    (59): PReLU(num_parameters=64)
    (60): Conv2d(64, 64, kernel_size=(3, 3), stride=(1, 1), padding=(1, 1))
    (61): PReLU(num_parameters=64)
    (62): Conv2d(64, 64, kernel_size=(3, 3), stride=(1, 1), padding=(1, 1))
    (63): PReLU(num_parameters=64)
    (64): Conv2d(64, 64, kernel_size=(3, 3), stride=(1, 1), padding=(1, 1))
    (65): PReLU(num_parameters=64)
    (66): Conv2d(64, 48, kernel_size=(3, 3), stride=(1, 1), padding=(1, 1))
  )
  (upsampler): PixelShuffle(upscale_factor=4)
)
2025-03-27 09:17:53,252 INFO: Loading: params_ema does not exist, use params.
2025-03-27 09:17:53,252 INFO: Loading SRVGGNetCompact model from experiments/pretrained_models/realesr-general-wdn-x4v3.pth, with param key: [params].
2025-03-27 09:17:53,281 INFO: Use Exponential Moving Average with decay: 0.999
…
